results/models/lstm.pth (torch, 676657 bytes, 33 tensors)

lstm.weight_ih_l0 f4 [256, 12]
0	0x3e77d5ac	0.24202603
1	0x3e4024f7	0.18764101
2	0x3dbcad4d	0.09212742
3	0x3e69aa21	0.22818805
4	0x3e24d63f	0.16097353
5	0x3e139511	0.14412333
6	0xbdf8794f	-0.12132513
7	0x3e6f72a3	0.23383574
8	0x3ca309a7	0.019902064
9	0xbcb5029a	-0.022095967
10	0x3e1f62a9	0.1556498
11	0x3e0b904f	0.13629268
12	0x3da95cf1	0.0826968
13	0x3d90319e	0.07040714
14	0x3e08673d	0.13320632
15	0x3d02372e	0.031790905
16	0xbc3a4b32	-0.011370467
17	0x3d7a2f76	0.06108042
18	0x3c2b3899	0.010450506
19	0x3db33317	0.08749979
20	0xb9d6275e	-0.00040846592
21	0x3d2fe761	0.04294527
22	0xba9d10db	-0.0011983173
23	0x3dd8f57c	0.105936974
24	0xbdada577	-0.084788255
25	0xbcc0a8ec	-0.023518048
26	0x3ababaea	0.0014246379
27	0xbd52d6ad	-0.051474262
28	0xbca04412	-0.019563708
29	0xbdd23037	-0.102631025
30	0x3e190b22	0.14945653
31	0xbd88692f	-0.06660687
32	0x3e0ac8cf	0.13553165
33	0x3d82508b	0.063630186
34	0x3b4744bb	0.0030405957
35	0x3ddd97de	0.10819982
36	0x3d8f5d2c	0.07000193
37	0x3df62368	0.12018472
38	0x3cb5d0da	0.022194315
39	0x3c9241eb	0.017853698
40	0x3dd99b99	0.10625381
41	0x3cf8e405	0.030382166
42	0x3da781d9	0.08179063
43	0x3df4e0aa	0.11956914
44	0x3dbaa42c	0.091133446
45	0xbd4194a4	-0.047260895
46	0x3d7d079a	0.061774828
47	0x3d2496f0	0.040183008
48	0x3e962183	0.29322442
49	0x3ca8edbf	0.020621179
50	0xbd81ddc8	-0.063411295
51	0x3e14cd58	0.14531457
52	0x3e81be96	0.25340718
53	0x3e9cf6b6	0.30656976
54	0xbd6834b1	-0.056690875
55	0x3e539243	0.20661263
56	0xbc40f06c	-0.011776071
57	0x3b2f9d02	0.0026796465
58	0x3df2debf	0.11858892
59	0xbca6e16c	-0.020371161
60	0x3d63e18d	0.055635024
61	0xbd067beb	-0.03283302
62	0x3da3249e	0.079659685
63	0x3d88bd68	0.066767514
64	0x3d93f8ba	0.07225175
65	0x3db90b43	0.09035351
66	0x3e25e572	0.16200808
67	0xbd35372b	-0.044242065
68	0xbd5e4839	-0.054268096
69	0xbd3e6e89	-0.046492133
70	0x3ddd77e5	0.10813884
71	0x3ce01216	0.027352374
72	0x3e08eac2	0.13370803
73	0xbd7856b2	-0.060629554
74	0xbd97e59d	-0.07416842
75	0xbd183137	-0.03715631
76	0xbe298369	-0.16554035
77	0x3de36831	0.11103857
78	0x3dc975e9	0.09836943
79	0x3e100054	0.14062625
80	0xbc410c79	-0.011782759
81	0xbd21d046	-0.039505266
82	0x3dc0e166	0.09417991
83	0xbd259613	-0.040426325
84	0x3d988239	0.07446713
85	0xbc55f9e8	-0.013060071
86	0x3da71844	0.08158925
87	0xbdae6088	-0.085145056
88	0xbdf3dc13	-0.1190721
89	0x3d49c306	0.049258254
90	0x3d1f3e48	0.038877755
91	0x3a74ce95	0.00093386444
92	0x3df9267f	0.12165546
93	0x3df2d0df	0.11856245
94	0xbd4cd23f	-0.050005194
95	0xbd28a691	-0.041174475
96	0x3ea2814b	0.31739268
97	0x3d75aa21	0.0599767
98	0x3b3866a6	0.0028137355
99	0x3cda3b3b	0.026639571
100	0x3e8c4c4d	0.27401963
101	0x3e3dfa31	0.18552472
102	0xbd72427e	-0.059145443
103	0x3d433819	0.04766092
104	0x3d0ccee0	0.03437698
105	0xbd13f881	-0.036125664
106	0xbc29d8d9	-0.010366642
107	0x3c601162	0.013676019
108	0x3d806f73	0.06271257
109	0xbd4557e9	-0.04817954
110	0x3de329de	0.1109197
111	0x3c9a214a	0.018814702
112	0x3e98f0ab	0.29871115
113	0xbdfcbbc9	-0.12340505
114	0xbd331399	-0.04371986
115	0xbd848807	-0.06471258
116	0x3d5ad76d	0.053428102
117	0xbdf1e1ab	-0.11810621
118	0xbd8a4709	-0.0675183
119	0xbc82c718	-0.015964076
120	0xbb851bb2	-0.0040621394
121	0xbd2f767e	-0.042837612
122	0x3cdd4e49	0.027014868
123	0x3c83a846	0.01607145
124	0xbe6d7541	-0.2318926
125	0x3d288a77	0.041147675
126	0xbbf9f594	-0.007628152
127	0xbdca0b40	-0.09865427
128	0x3e04d5bd	0.1297216
129	0xbc370529	-0.011170664
130	0x3dce3a5f	0.10069727
131	0x3c40110a	0.011722812
132	0x3d8d41e4	0.06897333
133	0x3e19a991	0.1500609
134	0x3b4e034a	0.0031435066
135	0x3bc402e5	0.0059817904
136	0x3e4fcb07	0.20292293
137	0xbd8ec813	-0.06971755
138	0x3bf452fb	0.007456181
139	0x3d11ea8a	0.035624065
140	0x3c9f8d9d	0.019476706
141	0xbd87a330	-0.066229224
142	0x3e2f1766	0.1709877
143	0xbc5543f2	-0.013016688
144	0x3dc188fc	0.09449956
145	0x3d13c741	0.036078695
146	0x3d59b1dc	0.053148136
147	0x3db639a9	0.088977166
148	0x3ec043cc	0.37551725
149	0xbe00925c	-0.12555832
150	0x3c590fa9	0.013248363
151	0xbd4dfed7	-0.050291862
152	0xbd07662e	-0.03305643
153	0xbddb6266	-0.107121274
154	0x3e012164	0.12610394
155	0xbd281b6a	-0.04104177
156	0x3de9a535	0.11408464
157	0x3d4fbbc5	0.05071618
158	0x3d564cb8	0.05231926
159	0xbdbe308f	-0.092866056
160	0x3e7c9f93	0.24670248
161	0x3b09c27f	0.002102047
162	0x3ced68dd	0.028980667
163	0xbdc4e6d1	-0.09614337
164	0x3d5e549c	0.05427991
165	0xbbed62a1	-0.0072444235
166	0xbcd24c9a	-0.025671292
167	0x3e2bf25e	0.16791674
168	0x3e7bae5e	0.24578235
169	0x3d4ebb71	0.050471727
170	0x3c78f4a5	0.015195047
171	0x3e58743d	0.21138091
172	0x3ebe467c	0.3716315
173	0x3e49dd1a	0.1971325
174	0xbe09e8b6	-0.13467678
175	0x3e062a9f	0.13102196
176	0xbdcf9296	-0.10135381
177	0x3da1aad1	0.07893909
178	0x3e1de863	0.1542068
179	0xbd77ac84	-0.060467258
180	0x3dd8baa3	0.10582473
181	0x3da7b14e	0.08188115
182	0x3d0ae5d8	0.033910602
183	0x3ae8e9dc	0.0017769891
184	0x3e837f7e	0.25683206
185	0x3dfbfccf	0.12304079
186	0x3d5f78d5	0.054558594
187	0xbc3e1839	-0.011602455
188	0xbd620216	-0.05517777
189	0x3c8dd03a	0.017311204
190	0xbba8bf18	-0.0051497333
191	0xbc0b21ac	-0.008491915
192	0x3e3645ff	0.17800139
193	0x3e2d6211	0.1693194
194	0xba23f35c	-0.000625422
195	0x3caa0741	0.020755412
196	0x3e83df6b	0.25756392
197	0x3d3d996f	0.046288904
198	0x3d1d4682	0.03839732
199	0x3dc35fb8	0.09539741
200	0xbdb3b995	-0.08775631
201	0xbcac7c76	-0.021055441
202	0x3e140969	0.14456715
203	0x3dd455ff	0.10367965
204	0x3d634c04	0.055492416
205	0xbd100fbd	-0.03517126
206	0xbd7cd8ec	-0.06173031
207	0xbd55b8ca	-0.05217818
208	0x3df99c58	0.12188023
209	0x3ddc0d5a	0.10744734
210	0x3df1c938	0.118059576
211	0x3d9f0507	0.07764631
212	0xbdc03c80	-0.093865395
213	0xbd7019d9	-0.0586184
214	0xbc3e5c65	-0.011618708
215	0x3e0c3def	0.13695501
216	0x3de8814f	0.11352789
217	0x3c2cb4af	0.010541125
218	0x3d93b6bd	0.07212589
219	0x3d89cc27	0.06728392
220	0x3db14cc1	0.08657218
221	0x3e5f3179	0.21796216
222	0xbd31284e	-0.04325133
223	0x3c292c62	0.010325523
224	0xbe06ad5f	-0.13152073
225	0x3d9969bb	0.074908696
226	0x3d62acf5	0.055340726
227	0x3d5698d9	0.05239186
228	0xbdd28c37	-0.1028065
229	0xbd8087b7	-0.062758856
230	0xbd0b17d9	-0.03395829
231	0x3dfe5f21	0.12420488
232	0xbd311f73	-0.043242883
233	0x3e02b7bb	0.127654
234	0x3e00c476	0.12574944
235	0x3de485ce	0.11158334
236	0x3d8bf5dd	0.06834004
237	0xbcb7a3a8	-0.022416905
238	0xbceba5ca	-0.028765578
239	0xbda118d7	-0.07866066
240	0x3d0e5952	0.03475315
241	0x3c42a360	0.011879772
242	0x3d74fd97	0.059812155
243	0xbd193d94	-0.03741224
244	0xbe11d230	-0.14240336
245	0xbd84b2bd	-0.06479404
246	0xb97d74d4	-0.00024171482
247	0x3e0af13a	0.13568583
248	0x3d1f9a59	0.038965557
249	0x3e2b7596	0.16744074
250	0x3d6121f6	0.05496403
251	0xbd15232f	-0.036410507
252	0x3c63029f	0.013855605
253	0xbcc55c82	-0.024091963
254	0xba1407e4	-0.0005646928
255	0xbd855e39	-0.06512112

lstm.weight_hh_l0 f4 [256, 64]
0	0xbdb145b4	-0.08655873
1	0xbd6701ef	-0.05639833
2	0x3d065cfe	0.032803528
3	0xbcf7542e	-0.030191507
4	0xbe6e75d7	-0.2328714
5	0xbd1fc6cc	-0.039007947
6	0x3d700472	0.05859799
7	0xbdff060a	-0.12452324
8	0xbe367e30	-0.17821574
9	0xbe0e5879	-0.13900937
10	0x3d532bbd	0.051555384
11	0xbea21bdb	-0.31661877
12	0xbe46f366	-0.19428787
13	0x3cad40f5	0.021149138
14	0x3e6e7bc7	0.23289405
15	0x3e3bc2c7	0.1833602
16	0x3db54cc2	0.08852531
17	0x3e0f5441	0.13996984
18	0x3e0f5c11	0.13999964
19	0x3af5a1f2	0.001874028
20	0xbd88d856	-0.06681888
21	0x3c338511	0.0109570185
22	0x3d6d5c16	0.057949148
23	0xbd5fcbe3	-0.0546378
24	0xbe24ff79	-0.1611308
25	0x3dff4f6c	0.124663204
26	0x3dad610a	0.08465774
27	0xbe0449dd	-0.12918802
28	0xbd45fb0e	-0.048335128
29	0x3df6dcb9	0.12053818
30	0xbd410656	-0.047125183
31	0xbde76348	-0.11298233
32	0xbd231d53	-0.039822888
33	0x3d60ee1e	0.054914586
34	0xbe21e158	-0.15808618
35	0x3d787cb8	0.060665816
36	0x3d5b44a2	0.05353225
37	0xbc033101	-0.008007289
38	0xbdea6676	-0.11445324
39	0xbd80649e	-0.06269191
40	0xbdbf4a9d	-0.09340403
41	0x3db59b67	0.08867531
42	0x3b13bda4	0.0022543455
43	0xbde8e991	-0.11372674
44	0x3d9c58be	0.07634114
45	0x3e2b9c20	0.16758776
46	0xbdae27d8	-0.08503693
47	0x3cd60259	0.026124166
48	0x3d791910	0.060814917
49	0x3e0c96d0	0.13729405
50	0x3ddd86d7	0.10816734
51	0x3d8022f0	0.06256664
52	0x3e6184ed	0.22023363
53	0xbdc9756a	-0.09836848
54	0xbdf7a9b7	-0.120929174
55	0xbd831657	-0.06400745
56	0xbe0b6039	-0.13610925
57	0x3e6398e3	0.2222629
58	0xbdd570f7	-0.10421937
59	0x3e5b5dfa	0.21422568
60	0x3ce87256	0.028374832
61	0xbe0e4528	-0.13893569
62	0xbdaf23e9	-0.08551771
63	0xbe07f323	-0.13276343
64	0x3dcc188e	0.09965621
65	0xbdd4a537	-0.10383075
66	0x3dc987c8	0.09840351
67	0x3d61c871	0.055122796
68	0xbdae02e4	-0.08496645
69	0xbe097091	-0.13421847
70	0xbd7e368d	-0.062063742
71	0xbe0977de	-0.13424632
72	0x3c4d53f9	0.012532228
73	0x3d17aef6	0.03703209
74	0x3e0c8b97	0.13725124
75	0xbe10ca48	-0.14139664
76	0xbd2caf86	-0.04215958
77	0xbd485465	-0.04890861
78	0x3d05ec9a	0.032696344
79	0x3dbaa629	0.09113724
80	0xbd99e2df	-0.07513975
81	0x3e254fc3	0.16143708
82	0xbcbc7a09	-0.02300741
83	0x3e3adc93	0.18248205
84	0xbdc43c4c	-0.09581813
85	0x3c8d34fe	0.017237183
86	0x3deff6f3	0.11717024
87	0xbd9b8e3a	-0.07595487
88	0xbda7ca47	-0.08192878
89	0x3dfc9d80	0.12334728
90	0xbdc30b3b	-0.095236264
91	0x3df6bc93	0.120476864
92	0xbe0e63d8	-0.13905275
93	0x3e332419	0.17494239
94	0xbc9ada32	-0.018902872
95	0xbdc974f5	-0.09836761
96	0x3d7a7f7e	0.061156742
97	0xbdba7d13	-0.09105887
98	0x3d5a39c0	0.05327773
99	0x3ca68016	0.020324748
100	0x3e1d90a2	0.15387204
101	0xbdc2a9ae	-0.0950502
102	0xbd53ce8c	-0.05171065
103	0xbdd077a4	-0.1017907
104	0xbcec8683	-0.028872734
105	0xbdb5e36e	-0.088812694
106	0x3de057b6	0.109542295
107	0xbd4996ab	-0.049215954
108	0xbdd649f9	-0.10463328
109	0xbd908ad9	-0.07057733
110	0x3b38c10e	0.0028191241
111	0xbad29c0c	-0.0016068234
112	0x3e1e30f9	0.15448369
113	0x3d6fba41	0.058527235
114	0x3db38dd7	0.08767288
115	0x3d2a8d51	0.041638676
116	0xbccf73a5	-0.025323698
117	0xbdd43c4e	-0.10363065
118	0xbe18bce5	-0.14915808
119	0x3cae9427	0.021310879
120	0xbdea29e5	-0.11433772
121	0x3df61e3d	0.12017486
122	0xbd9aee31	-0.07564963
123	0x3de3f43e	0.1113057
124	0x3d536766	0.05161228
125	0xbe0e03ae	-0.13868591
126	0x3d523dd3	0.05132849
127	0xbd5d2378	-0.053988904
128	0xbd9cef26	-0.076628014
129	0x3c191d97	0.009345434
130	0x3de35306	0.1109982
131	0x3e16177f	0.146574
132	0xbdd5b184	-0.10434249
133	0x3da0331b	0.078222476
134	0x3e0b9175	0.13629706
135	0x3d9b2074	0.07574549
136	0x3d8cf0ae	0.068818435
137	0xbcc30c64	-0.02380962
138	0x3e07867f	0.132349
139	0x3db01ea7	0.085995965
140	0xbdb0c32c	-0.08630976
141	0x3cb7a8d6	0.022419374
142	0x3dbfa34e	0.0935732
143	0x3e0be138	0.13660133
144	0x3de9f49f	0.11423611
145	0x3e059792	0.130461
146	0xbd321754	-0.04347928
147	0x3d22d5a4	0.039754525
148	0xbdd312c7	-0.10306316
149	0x3cdc95b3	0.02692685
150	0x3cd1ca3a	0.025609124
151	0xbdf77acd	-0.12083969
152	0xbd5836c4	-0.052786604
153	0xbd8061d3	-0.062686585
154	0xbde9403d	-0.113892056
155	0x3e03f9a9	0.12888207
156	0xbdd7df21	-0.10540605
157	0x3dc4c212	0.096073285
158	0x3c9d88ab	0.019230207
159	0xbd759b07	-0.0599623
160	0xbced2645	-0.028948912
161	0x3d81bac3	0.0633445
162	0xbd5631c4	-0.052293554
163	0x3d7d9255	0.06190713
164	0x3dda7733	0.10667267
165	0x3ded1d76	0.11577885
166	0xbe1a0376	-0.15040383
167	0xbdc9d0ca	-0.098542765
168	0xbe11c489	-0.14235128
169	0xb8fa8a57	-0.00011946697
170	0x3c68e3fc	0.014214512
171	0xbbfd1a98	-0.0077241175
172	0x3d06f1a7	0.0329453
173	0x3db408d2	0.08790745
174	0xbe05b8e0	-0.13058805
175	0xbd3fa555	-0.046788532
176	0x3e092593	0.1339324
177	0x3d0b57fe	0.034019463
178	0x3d987bfb	0.074455224
179	0xbcb60fba	-0.022224296
180	0xbe0288cc	-0.12747496
181	0xbc5819bf	-0.013189732
182	0xbded2101	-0.115785606
183	0x3ccb3a20	0.02480799
184	0x3d31664a	0.04331044
185	0xbd275939	-0.040856574
186	0xbda00ce5	-0.078149594
187	0xbc02aa6d	-0.007975203
188	0xbd15b375	-0.036548097
189	0xbdb32a2d	-0.08748279
190	0x3da4e4b1	0.08051432
191	0xbe233c35	-0.15940936
192	0xbe21d545	-0.15804012
193	0xbdae14df	-0.085000746
194	0x3d42657a	0.047460057
195	0x3d355f1b	0.044280153
196	0xbcf1ecbd	-0.02953183
197	0x3da61492	0.08109392
198	0xbdd6601e	-0.10467552
199	0x3d3a45c4	0.04547669
200	0xbdc89b2b	-0.09795221
201	0xbd93564d	-0.07194195
202	0xbdd65032	-0.10464515
203	0xbdb60387	-0.088873915
204	0xbde894fc	-0.113565415
205	0x3d87e9a9	0.06636364
206	0xbd819cbc	-0.06328723
207	0x3dbda3d0	0.092597604
208	0xbd00dbfb	-0.03145979
209	0xbc279028	-0.010227241
210	0x3d62e5f9	0.0553951
211	0x3db520d3	0.08844151
212	0xbc98613c	-0.018601052
213	0x3d5cfa3a	0.053949572
214	0xbd21d6fd	-0.03951167
215	0x3d2edefe	0.04269313
216	0x3d5c1beb	0.053737562
217	0x3d8ed7c4	0.06974748
218	0xbd04a2d8	-0.032381862
219	0xbd1c7a49	-0.038202558
220	0x3d201d9e	0.039090745
221	0x3da0fefb	0.07861134
222	0xbbed3d83	-0.007239999
223	0x3d06f908	0.03295234
224	0xbdf2e9a9	-0.118609734
225	0x3d09ea2d	0.033670593
226	0xbcddb155	-0.027062098
227	0xbdbe986d	-0.09306417
228	0xbce0edb1	-0.02745709
229	0xbd59501a	-0.053054906
230	0x3a51f6de	0.00080095034
231	0xbdaf1f43	-0.085508846
232	0xbd3e61b5	-0.0464799
233	0x3d42df06	0.047575973
234	0xbd81163a	-0.063030675
235	0xbcf8ef83	-0.030387646
236	0x3d8eb2c4	0.069676906
237	0x3d9f427b	0.07776352
238	0x3daa358a	0.08310993
239	0xbd4c22c7	-0.049837854
240	0x3da30324	0.079595834
241	0x3cdbec66	0.026846122
242	0xbd3e869b	-0.04651509
243	0xbd5208e6	-0.051278017
244	0x3e3eb398	0.18623197
245	0x3cd504e7	0.026003314
246	0xbd13cdc3	-0.0360849
247	0xbc2c671a	-0.010522628
248	0x3d9fc6cd	0.0780159
249	0x3d2c1901	0.042016033
250	0xbe245041	-0.1604624
251	0xbc0d0b39	-0.008608633
252	0xbcb84dd3	-0.022498047
253	0xbd5d3df8	-0.054014176
254	0xbda5e830	-0.08100927
255	0xbde99a2c	-0.11406359

lstm.bias_ih_l0 f4 [256]
0	0x3dd41248	0.10355049
1	0x3d7e9af2	0.062159486
2	0xbd3bb4e1	-0.045826796
3	0xbd96d78d	-0.07365332
4	0x3b1cac71	0.0023906494
5	0x3d9d2a13	0.07674041
6	0x3d59d52c	0.053181812
7	0x3d1c45c6	0.03815248
8	0xbcc6d24d	-0.024270201
9	0xbd1c4ee8	-0.03816119
10	0x3b1eafcc	0.002421367
11	0x3d95b833	0.07310524
12	0xbdfccaa7	-0.1234334
13	0x3d88596b	0.0665768
14	0x3ded2d77	0.11580937
15	0xbdf92e29	-0.121670075
16	0x3d9ace7c	0.07558915
17	0x3d23f0dc	0.040024623
18	0x3d7c3f82	0.061584003
19	0xbba4da6e	-0.0050309217
20	0x3e22cd45	0.15898617
21	0xbd13cce1	-0.03608406
22	0x3b1388ff	0.0022512076
23	0x3d68cf05	0.056838054
24	0xbc3188d3	-0.010835844
25	0x3d9c73ae	0.07639252
26	0x3c332e50	0.010936335
27	0xbddffc13	-0.10936751
28	0xbdb0f1b3	-0.086398505
29	0x3d3a7a0d	0.045526553
30	0xbd84584d	-0.064621545
31	0x3e031d39	0.12804116
32	0x3e0bfc3f	0.13670443
33	0x3db5fa27	0.088856034
34	0xbd9128de	-0.07087873
35	0x3c900a7f	0.01758313
36	0x3dcbf59f	0.09958958
37	0x3d0fdc98	0.035122484
38	0x3d291152	0.041276284
39	0x3cf6f28d	0.030144954
40	0xbcd909ff	-0.026494024
41	0xbb28c904	-0.002575458
42	0x3dee9125	0.11648778
43	0xbc391e51	-0.011298732
44	0x3e30cd07	0.17265712
45	0x3dbe41c4	0.092898875
46	0xbc3ad5b6	-0.011403492
47	0x3c8e8f8b	0.017402431
48	0x3e050933	0.1299179
49	0x3d4d7c2e	0.050167255
50	0x3d641556	0.05568441
51	0xbccd7c1a	-0.02508359
52	0x3dbcbdf3	0.092159174
53	0xbd45edc2	-0.048322447
54	0x3e0dd00a	0.13848892
55	0x3ce591fb	0.02802371
56	0xbd18f1ec	-0.03734009
57	0xbb3feb71	-0.002928462
58	0x3dda4ba5	0.10658959
59	0x3de4007e	0.111329064
60	0x3c434f98	0.011920832
61	0x3db874bb	0.090066396
62	0xbd0c95b2	-0.034322448
63	0x3ccd3d1e	0.025053557
64	0x3cbaec17	0.022817655
65	0x3d388207	0.04504588
66	0x3d853450	0.065041184
67	0x3db1d6e9	0.08683569
68	0x3bbab288	0.005697552
69	0xbd66e6a7	-0.05637231
70	0x3d40676e	0.04697364
71	0x3cecd1dd	0.028908664
72	0xbb1f0124	-0.0024262154
73	0x3e77f7ba	0.24215594
74	0x3de11941	0.10991145
75	0xbda25a31	-0.07927359
76	0xbcb1315c	-0.021629982
77	0x3c8140b9	0.015777932
78	0x3d9d5791	0.076827176
79	0xbcbd8fcc	-0.023139857
80	0xbc24e787	-0.010064966
81	0xbcb00352	-0.021485958
82	0xbd8191f2	-0.06326665
83	0xbd12780c	-0.035759017
84	0x3ae08e52	0.0017132259
85	0x3d631481	0.055439476
86	0x3dbf0160	0.09326434
87	0x3c7d328e	0.015453948
88	0x3e0a89ea	0.13529173
89	0xbd0f5069	-0.034988794
90	0x3e0b8fcb	0.13629071
91	0x3db3f9a7	0.08787852
92	0xbd5753dc	-0.05257021
93	0x3d719948	0.05898407
94	0xbdb00d7c	-0.08596322
95	0x3d7ea090	0.062164843
96	0x3cc69b63	0.024244016
97	0x3d8084c5	0.06275324
98	0x3de033a9	0.109473534
99	0x3e1efd1f	0.15526246
100	0xbda12ac2	-0.078694835
101	0xbe03f0bf	-0.12884806
102	0x3d1ce38b	0.03830294
103	0xbc8ad06a	-0.016945083
104	0x3d097bca	0.03356532
105	0x3e0b2dc3	0.13591675
106	0x3d5e1e84	0.05422832
107	0x3ce5b559	0.028040575
108	0xbe06369e	-0.13106772
109	0x3d0a5222	0.033769734
110	0xbd8397f6	-0.064254686
111	0xbca1b21c	-0.01973825
112	0x3df9fcd5	0.12206427
113	0x3bad9bfe	0.0052981367
114	0x3d3a46aa	0.045477547
115	0x3daf9246	0.08572821
116	0x3dcebfa5	0.10095147
117	0x3d8da403	0.069160484
118	0xbdc0745a	-0.09397192
119	0x3db0c23b	0.086307965
120	0x3d89808f	0.06713974
121	0xbd82ae03	-0.06380846
122	0xbdc41291	-0.09573854
123	0xbd9bc849	-0.07606561
124	0x3d5071bb	0.05088971
125	0xbc84f2f8	-0.016229138
126	0x3c93d2e7	0.018044902
127	0x3d8f4bc0	0.0699687
128	0x3db7120f	0.08938991
129	0x3c1e9734	0.009679604
130	0x3db8aa88	0.09016901
131	0x3e0e425d	0.13892503
132	0xbc12eacf	-0.008967116
133	0xbdb3b40f	-0.08774578
134	0x3dcf1bd9	0.101127334
135	0xbcf0713e	-0.029350873
136	0x3de0a4bb	0.1096892
137	0xbd9f29c2	-0.077716365
138	0xbd0bc662	-0.03412474
139	0x3dace825	0.084427156
140	0xbdaa2d21	-0.08309389
141	0x3db7f249	0.08981759
142	0xbda12099	-0.07867546
143	0x3d6a3090	0.05717522
144	0x3e0045a8	0.12526572
145	0x3d94a3b7	0.07257789
146	0xbd761de3	-0.060087096
147	0x3db57c3b	0.08861586
148	0xbd67c0d4	-0.05658038
149	0xbd7ede06	-0.062223457
150	0xbdcaa34c	-0.09894428
151	0xbdd193a1	-0.10233236
152	0xbd9452cb	-0.07242354
153	0x3dc79e9a	0.09747048
154	0xbd893300	-0.066991806
155	0xbdef328b	-0.11679562
156	0xbde24b21	-0.11049486
157	0x3d9ed15f	0.07754778
158	0xbda0c7b3	-0.078505896
159	0xbe126b75	-0.14298804
160	0xbc3241a1	-0.010879905
161	0xbdf537d4	-0.11973539
162	0xbc5be53e	-0.013421355
163	0xbd49184a	-0.04909543
164	0x3e0913c0	0.1338644
165	0xbcbda0e5	-0.02314801
166	0xbe1afc43	-0.15135293
167	0xbdddb271	-0.108250506
168	0xbd3fc36e	-0.046817236
169	0xbd0fb961	-0.0350889
170	0x3e281a3e	0.1641626
171	0xbde85ee2	-0.113462225
172	0xbe006eb1	-0.12542225
173	0x3da0c450	0.07849944
174	0xbda0dd76	-0.0785474
175	0x3dcedc5e	0.101006255
176	0x3d4e6eb1	0.050398532
177	0x3d430207	0.047609355
178	0x3dc2a696	0.0950443
179	0x3cc11065	0.023567388
180	0xbdb39949	-0.08769471
181	0xbd58af15	-0.052901346
182	0xbd31b3db	-0.043384414
183	0xbe2a0ffc	-0.1660766
184	0x3d43835c	0.047732696
185	0x3d66f34c	0.05638437
186	0xbd7ce858	-0.061745018
187	0x3e086804	0.13320929
188	0x3c9486c0	0.01813066
189	0x3d2c6419	0.042087648
190	0x3d6ca62c	0.05777566
191	0xbcad6e97	-0.021170897
192	0xbc8b80a4	-0.017029114
193	0x3df714d0	0.120645165
194	0x3d71dd57	0.059048977
195	0x3d405be1	0.046962623
196	0xbcc8cc2d	-0.024511421
197	0xbe1a7497	-0.15083538
198	0xbc001885	-0.007818346
199	0x3e1044b4	0.14088708
200	0xbde6f565	-0.11277274
201	0xbdfc8230	-0.12329519
202	0xbd421d2d	-0.047391105
203	0xbe65a043	-0.22424416
204	0x3c959fa3	0.018264597
205	0x3db16706	0.08662228
206	0xbe269101	-0.16266252
207	0xbe0cd5cb	-0.1375343
208	0x3c60d4d6	0.013722619
209	0xbcc6c32b	-0.024262985
210	0x3d65aedc	0.056074962
211	0x3d6d1ebc	0.05789064
212	0x3d5ae47e	0.053440563
213	0x3d77056c	0.060307905
214	0x3d37ed86	0.044904254
215	0x3cfb9702	0.030711655
216	0x3d5e95f9	0.054342244
217	0xbe02a447	-0.1275798
218	0xbc3b8dd5	-0.01144739
219	0xbd699fad	-0.057037044
220	0x3db852f7	0.09000199
221	0xbcf905fd	-0.030398363
222	0x3d8c3ac2	0.06847145
223	0xbe026f1f	-0.12737702
224	0x3d2a2f42	0.041548975
225	0x3ad8128a	0.0016485017
226	0x3d41edc0	0.047345877
227	0x3d83b734	0.064314276
228	0xbe0c14b8	-0.13679779
229	0x3c527c72	0.012847053
230	0x3db992db	0.090612136
231	0xbd11e3c8	-0.03561762
232	0x3d1e625b	0.038668018
233	0xbd803e2c	-0.06261858
234	0xbd7c5cba	-0.06161187
235	0x3c12ae75	0.008952727
236	0x3d484331	0.048892204
237	0x3c557d43	0.013030353
238	0xbd6f9781	-0.058494095
239	0xbd3cc550	-0.04608661
240	0xbcb7b84d	-0.022426749
241	0xbbe5af01	-0.0070093875
242	0x3d81474e	0.063124284
243	0xbd6d668e	-0.057959132
244	0x3d847363	0.06467321
245	0x3b02036a	0.001983846
246	0xbe0ca58d	-0.13735028
247	0xbd6183c5	-0.055057306
248	0xbdf721f7	-0.12067025
249	0xbd7fffc8	-0.06249979
250	0x3d544506	0.05182364
251	0xbbf12920	-0.007359639
252	0x3df7f30b	0.12106904
253	0xbd9364e0	-0.07196975
254	0xbd8072e4	-0.06271914
255	0x3d1bac7a	0.038006283

lstm.bias_hh_l0 f4 [256]
0	0xbd10794a	-0.03527192
1	0x3df1ad5b	0.11800643
2	0x3d150147	0.03637817
3	0xbdd90153	-0.10595956
4	0xbdcf11dd	-0.10110829
5	0x3d353cb8	0.04424736
6	0x3db26222	0.087101236
7	0x3c9d188a	0.01917674
8	0x3bc6c60b	0.006066089
9	0x3dc9f8e6	0.09861927
10	0x3cdd352b	0.027002892
11	0xbd28bb80	-0.04119444
12	0x3dc47e1e	0.095943674
13	0xbc9b4b1d	-0.018956715
14	0x3bb932a0	0.005651787
15	0xbc2938f1	-0.010328517
16	0xbadc0e9a	-0.001678902
17	0x3c531e83	0.0128856925
18	0xbd2a3070	-0.0415501
19	0x3e0e9c04	0.13926703
20	0x3daff5a3	0.08591773
21	0x3ddb2ad3	0.107015274
22	0x3d90e75b	0.070753776
23	0x3dcc7f52	0.09985222
24	0xbd8af30a	-0.06784637
25	0x3d5e54fb	0.054280262
26	0x3d971d99	0.07378692
27	0x3d33365b	0.04375301
28	0xbd4a4907	-0.04938605
29	0x3d52ed7b	0.05149601
30	0xbc702f4d	-0.014659715
31	0xbceac49d	-0.028658206
32	0x3c083378	0.008313052
33	0xbbb3c195	-0.0054857233
34	0x3da58f0f	0.08083927
35	0x3e2e3df9	0.17015828
36	0xbccf1a9e	-0.025281247
37	0x3e03bde5	0.12865408
38	0x3dc89040	0.097931385
39	0xbd92e4a6	-0.071725175
40	0x3e0f3505	0.13985069
41	0xbd7d3ea1	-0.061827306
42	0xbbfb9062	-0.007677124
43	0xbd0ab598	-0.033864588
44	0x3e508f85	0.20367248
45	0xbdbc0570	-0.091807246
46	0xbd8c8033	-0.068603896
47	0xbd87bfd5	-0.06628386
48	0xbd0ea7b7	-0.034827914
49	0x3d0693f4	0.032855943
50	0x3da79e99	0.08184547
51	0xbd9ed9ad	-0.07756362
52	0x3d3ae2e5	0.04562654
53	0x3dec2803	0.11531069
54	0x3d5f30d2	0.054489918
55	0x3db8443f	0.08997392
56	0xbd6a3c73	-0.057186555
57	0x3dd40fc6	0.10354571
58	0xbc5c0e62	-0.0134311635
59	0x3d847572	0.064677134
60	0xbda37c77	-0.07982724
61	0xbc93ccef	-0.018042056
62	0x3da5e631	0.08100546
63	0xbd2f5190	-0.042802393
64	0xbe297707	-0.16549312
65	0x3d0189c8	0.03162554
66	0x3dd2d619	0.10294742
67	0xbd9469c2	-0.07246734
68	0x3c46344e	0.012097431
69	0xbd13d253	-0.036089253
70	0x3d53f400	0.05174637
71	0x3d63417d	0.055482376
72	0x3dc0bfae	0.0941156
73	0x3d6dc00d	0.058044482
74	0xbde4ae96	-0.11166112
75	0x3d475ad0	0.04867059
76	0x3dbfd6d6	0.093671486
77	0xbcd1989d	-0.025585467
78	0x3d39394e	0.045220666
79	0xbde098ce	-0.10966645
80	0x3d910b64	0.07082251
81	0x3d9addeb	0.07561859
82	0xbdd0f5a9	-0.10203106
83	0x3d2cfb19	0.042231653
84	0x3e1ed147	0.1550952
85	0x3db4802a	0.08813508
86	0x3d93b8e1	0.07212997
87	0xbd88b7f1	-0.06675709
88	0x3dfe86a8	0.124280274
89	0xbdfaf539	-0.12253804
90	0x3d266201	0.040620808
91	0x3d2d30b1	0.042282764
92	0xbdaf58c9	-0.08561856
93	0xbc054a7a	-0.008135432
94	0x3e19dc9d	0.15025564
95	0xbdbf4068	-0.093384564
96	0x3daa2dff	0.08309554
97	0x3dec99e9	0.115527935
98	0xbcd53568	-0.026026443
99	0x3daff4bd	0.08591602
100	0xbd37c56e	-0.044866018
101	0xbe03c482	-0.1286793
102	0xbda7cacc	-0.08192977
103	0x3c880003	0.016601568
104	0xbd69fd3a	-0.05712626
105	0x3c379316	0.011204502
106	0x3de78894	0.11305347
107	0x3d97020d	0.07373438
108	0xbe1a45a8	-0.15065634
109	0x3da77819	0.08177204
110	0x3d0fd2aa	0.035113014
111	0x3d5ef062	0.054428466
112	0x3ded9f6e	0.116026744
113	0xbdb5ab12	-0.0887052
114	0xbd933c37	-0.071892194
115	0x3dc64eb0	0.09682977
116	0x3d197c8c	0.037472293
117	0xbbcf19fd	-0.0063202367
118	0xbd3ce9b5	-0.046121318
119	0x3dea6b49	0.11446244
120	0x3cb3b996	0.02193908
121	0x3ccf9351	0.0253388
122	0xbd684543	-0.056706678
123	0x3e011ae5	0.12607916
124	0x3c111da0	0.008857161
125	0xbbd574b9	-0.0065141586
126	0xbd971aad	-0.07378135
127	0x3e1d7533	0.15376739
128	0xbdb1cf4d	-0.086821176
129	0xbe27bbec	-0.1638028
130	0x3daa5dd9	0.08318681
131	0xbd1eb900	-0.03875065
132	0x3d72c6c6	0.059271596
133	0xbbf99e30	-0.0076177344
134	0xbcea6dee	-0.028616872
135	0xbe0305ae	-0.12795135
136	0xbdc4e1d3	-0.09613385
137	0x3e0ed27b	0.1394748
138	0x3d2cc145	0.042176504
139	0xbd8eedc6	-0.069789454
140	0x3dd70f99	0.10501022
141	0x3d85b145	0.06527952
142	0x3dc706fd	0.0971813
143	0x3dd645c5	0.10462526
144	0x3dc7890a	0.09742935
145	0x3db30685	0.08741478
146	0x3d90d694	0.070721775
147	0x3db6f653	0.08933701
148	0x3bc47765	0.0059956782
149	0xbd96eaaa	-0.07368977
150	0xbbcbd90f	-0.0062209438
151	0xbd974e85	-0.07388023
152	0xbdc93b55	-0.0982577
153	0x3de24e10	0.110500455
154	0x3dbfdc9c	0.0936825
155	0x3dc41951	0.09575141
156	0x3cfaebdd	0.030630047
157	0x3e001400	0.1250763
158	0x3ddee217	0.10882967
159	0xbcf2c900	-0.02963686
160	0xbe05b2c3	-0.13056473
161	0x3d3f001b	0.04663096
162	0xbd9db4b2	-0.077004805
163	0xbdec5408	-0.11539465
164	0x3de8508a	0.113434866
165	0x3e0856eb	0.13314407
166	0x3d1fe5e2	0.039037593
167	0xbd9b3377	-0.075781755
168	0xbdc483a6	-0.095954224
169	0x3df734b2	0.12070598
170	0x3dee370e	0.116315946
171	0xbd19cb18	-0.0375472
172	0xbdce5ec5	-0.100766696
173	0xbd0165bc	-0.031591162
174	0xbdc8563c	-0.09782073
175	0xbd54f468	-0.051990896
176	0xbd9da64a	-0.07697733
177	0xbcc2b4b5	-0.023767808
178	0x3dd5ccae	0.1043943
179	0x3c94174f	0.01807752
180	0x3c8a046f	0.016847817
181	0xbbbf5ce9	-0.005839933
182	0xbdf32e49	-0.118740626
183	0x3d3a2faa	0.045455612
184	0x3d54364c	0.051809594
185	0xbccbeb4f	-0.024892477
186	0x3cd7413e	0.026276227
187	0x3daf7230	0.085667014
188	0xbde46c7a	-0.11153503
189	0x3c6946cf	0.0142380735
190	0xbdb1c3f0	-0.0867995
191	0x3caaf778	0.020869955
192	0xbdd8caf0	-0.10585582
193	0x3d007ba6	0.03136792
194	0xbcb60e82	-0.022223715
195	0xbe133b4c	-0.14378089
196	0xbda9727b	-0.082737885
197	0xbdccf1c0	-0.10007048
198	0x3c6fca06	0.0146355685
199	0x3d4eec26	0.050518177
200	0x3c260a96	0.01013436
201	0xbe211c09	-0.15733351
202	0x3d78ce1f	0.060743447
203	0xbe4a3428	-0.19746459
204	0x3b0bd8db	0.0021338973
205	0x3d72d974	0.05928941
206	0x3c0efdd3	0.008727509
207	0xbd8f9022	-0.07009913
208	0xbb47e145	-0.0030499261
209	0xbd75e46c	-0.060032293
210	0xbe0806fa	-0.13283911
211	0xbd8a039a	-0.06738968
212	0x3e427829	0.1899115
213	0xbc459b60	-0.01206097
214	0x3d1692d9	0.03676114
215	0xbe149f14	-0.14513808
216	0x3d8ab7c8	0.06773335
217	0x3d672112	0.056428023
218	0x3a40c695	0.000735381
219	0xbd380583	-0.04492713
220	0xbd8c11db	-0.06839343
221	0x3ce16b9a	0.027517129
222	0xbd8ffdad	-0.07030807
223	0xbd11d2c7	-0.035601404
224	0x3d2df36a	0.042468466
225	0x3d679e17	0.05654725
226	0x3d032fde	0.03202807
227	0xbd256a8a	-0.040384807
228	0xbe43bc1a	-0.19114724
229	0xbdb91fb7	-0.09039252
230	0x3dd54653	0.10413804
231	0x3e031906	0.12802514
232	0x3e1a29d4	0.15055019
233	0x3d6f7ee7	0.058470633
234	0x3ca833bf	0.020532487
235	0xbe222423	-0.15834098
236	0x3e167329	0.14692368
237	0x3d20a4c4	0.039219633
238	0x3da60664	0.08106688
239	0xbda4454e	-0.08021031
240	0xbd25b76f	-0.04045814
241	0x3b8e0df2	0.0043351585
242	0xbd40a597	-0.04703292
243	0x3d34fd58	0.04418692
244	0x3d80e112	0.06292929
245	0x3d96ff92	0.07372965
246	0xbd777c33	-0.06042118
247	0x3e072e84	0.13201338
248	0xbd1ac0b0	-0.037781417
249	0xbd94aecf	-0.072599046
250	0xbd8d0f5a	-0.06887694
251	0xbdd2c78f	-0.10291969
252	0x3dd7ad66	0.1053112
253	0xbbafc196	-0.0053636534
254	0x3ddc291d	0.10750029
255	0xbdc873c9	-0.09787709

lstm.weight_ih_l1 f4 [256, 64]
0	0x3d73e4ca	0.059544362
1	0x3c2fae2e	0.01072268
2	0x3e0e9435	0.13923724
3	0xbbecbd56	-0.007224719
4	0xbdf4b829	-0.11949188
5	0x3b175632	0.0023092148
6	0xbd675d58	-0.056485504
7	0x3d6a8b9a	0.05726204
8	0xbd01051e	-0.03149902
9	0x3dc17f8b	0.09448155
10	0x3e03864e	0.12844202
11	0xbd821a03	-0.063526176
12	0xbd913dff	-0.07091903
13	0xbaca0aef	-0.0015414635
14	0xbc5f0d42	-0.013614001
15	0x3d99a355	0.07501856
16	0x3d825ab4	0.063649565
17	0xbd2518f0	-0.040306985
18	0x3d7ef7f9	0.062248204
19	0x3e237ea1	0.15966274
20	0x3d5e5c6e	0.054287367
21	0x3cd67c42	0.026182298
22	0xbc8e4b82	-0.01736999
23	0x3cd7b61f	0.02633196
24	0x3ce52265	0.027970502
25	0xbc4e811a	-0.012604022
26	0x3c829632	0.01594076
27	0x3c4fbdd9	0.012679541
28	0x3cd6b414	0.026208915
29	0xbd86e9ac	-0.06587538
30	0x3d7e9902	0.06215764
31	0x3d5138e2	0.05107964
32	0xb9a7b9a2	-0.0003199103
33	0xbe042b26	-0.12907085
34	0xbddee728	-0.10883933
35	0xbe190b77	-0.1494578
36	0xbd819484	-0.06327155
37	0xbd84bdb8	-0.064814985
38	0xbd41b19e	-0.04728853
39	0xbdc026d1	-0.09382404
40	0xbe225ced	-0.15855761
41	0x3e11f500	0.14253616
42	0x3d8fbc5f	0.07018351
43	0xbdf500e8	-0.119630635
44	0xbd8199dc	-0.063281745
45	0x3cdd513d	0.027016276
46	0x3d1d1fb5	0.038360316
47	0x3b449a50	0.0029999204
48	0xbbaf8c0a	-0.00535727
49	0x3e0466ce	0.12929842
50	0x3ca72c81	0.020406963
51	0xbbcc07f4	-0.006226534
52	0x3deb781b	0.11497518
53	0xbe162ec0	-0.14666271
54	0xbb9eb6d1	-0.0048435708
55	0xbe00ff26	-0.12597331
56	0xbcc3bd2b	-0.023893913
57	0x3cc484ef	0.023989169
58	0xbe03a556	-0.1285604
59	0xbd1c6eb8	-0.038191527
60	0x3d23ac25	0.03995909
61	0x3d65eb78	0.056132764
62	0xbbbdf466	-0.005796957
63	0x3c1a8e9a	0.009433413
64	0x3cb63f83	0.022247082
65	0xbd3a06a0	-0.045416474
66	0x3c8f5f65	0.017501542
67	0x3e06eb6e	0.13175747
68	0x3ccdfc74	0.025144793
69	0xbda1354a	-0.07871492
70	0x3d635997	0.05550536
71	0x3b9e01c3	0.0048219874
72	0xbddf11b6	-0.1089205
73	0x3dc54806	0.09632878
74	0xbc1614ec	-0.009160262
75	0x3bea2f79	0.0071467725
76	0x3d65ad6f	0.056073602
77	0x3c23ce51	0.00999792
78	0xbd061cf6	-0.032742463
79	0xbd9c8fbb	-0.07644602
80	0x3c3e3e91	0.011611597
81	0x3dc99617	0.098430805
82	0x3e1c0651	0.15236785
83	0x3dd9b6b6	0.106305525
84	0xbcf33896	-0.029690068
85	0xbd2df70e	-0.042471938
86	0xbcb0ca2e	-0.021580782
87	0xbd99ca05	-0.07509235
88	0xbd56a89d	-0.052406896
89	0x3dc86b44	0.09786084
90	0xbd4945eb	-0.049138945
91	0xbda035ec	-0.07822785
92	0xbd7b883e	-0.061409228
93	0xbd403622	-0.046926625
94	0xbd7fe182	-0.06247092
95	0x3d0a2265	0.033724207
96	0x3ce4f4b0	0.027948707
97	0x3d24284e	0.0400775
98	0xbdeb502d	-0.11489902
99	0x3c533d16	0.012892982
100	0x3dc05fcb	0.09393271
101	0x3d597022	0.053085454
102	0xbdaae359	-0.083441444
103	0xbdabd3b3	-0.08389988
104	0x3d2b21f3	0.041780423
105	0x3d83a0f0	0.06427181
106	0x3d73967d	0.05946969
107	0xbdfa5127	-0.1222251
108	0xbdbb852e	-0.091562614
109	0x3e00f4a6	0.12593326
110	0xbcc858a5	-0.024456332
111	0x3e0ad0e8	0.13556254
112	0xbdbec7b7	-0.09315436
113	0xbc5dc58e	-0.01353587
114	0xbdb6706b	-0.08908161
115	0x3e1345e8	0.14382136
116	0x3d0cc8e6	0.03437128
117	0x3c8f4074	0.017486788
118	0x3d8bd338	0.06827396
119	0xbcdc5f6a	-0.026900966
120	0xbc3ab25a	-0.011395061
121	0xbd5f0739	-0.054450247
122	0xbcd489ff	-0.025944708
123	0x3dffbeeb	0.124875866
124	0xbd36395f	-0.044488307
125	0xbe029bf4	-0.12754804
126	0xbdc81352	-0.0976931
127	0xbcddf051	-0.02709213
128	0x3d36ec64	0.044659033
129	0xbc5ab53e	-0.013348876
130	0xbd590be0	-0.05298984
131	0x3d0f3e9b	0.034971815
132	0xbdb80fee	-0.08987413
133	0xbcd0c44c	-0.025484227
134	0x3dd705b3	0.10499134
135	0xbe026de4	-0.12737232
136	0xbd9d6857	-0.07685917
137	0xbd700ce7	-0.058606055
138	0x3e08aef5	0.13347991
139	0xbe035728	-0.12826216
140	0xbd399089	-0.045303855
141	0xbdc85fc6	-0.09783892
142	0xbd83b8f2	-0.0643176
143	0xbcde8162	-0.027161304
144	0x3d389242	0.045061357
145	0xbdb53990	-0.0884887
146	0x3c9820e3	0.01857037
147	0xbd5a4bce	-0.05329495
148	0x3d83c748	0.06434494
149	0xbdd68fc4	-0.1047664
150	0xbe0b25e6	-0.13588676
151	0xbd42eb7e	-0.047587864
152	0xbe00f620	-0.12593889
153	0xbcb50de8	-0.022101358
154	0x3d87fe26	0.06640272
155	0xbdd5b513	-0.10434928
156	0xbd924f30	-0.0714401
157	0x3dcabfb1	0.098998435
158	0x3de58e8c	0.11208829
159	0x3da5eb57	0.08101528
160	0x3da6f94f	0.081530206
161	0x3da7c701	0.08192254
162	0xbd6872d3	-0.05675013
163	0xbd97ab4a	-0.07405718
164	0xbb92a31d	-0.004475011
165	0x3d464dba	0.04841397
166	0xbc22c2e6	-0.009934163
167	0xbdd69b68	-0.1047886
168	0x3dae1b30	0.08501279
169	0xbcb0e3e2	-0.021593038
170	0x3df0fc98	0.117669284
171	0xbc9bdc4e	-0.019025948
172	0x3dbd21c7	0.09234958
173	0x3cf3123e	0.029671784
174	0x3c9b4a23	0.01895625
175	0xbd3b6256	-0.045748077
176	0x3d9ac971	0.07557953
177	0xbd27e542	-0.04099012
178	0x3dac624b	0.084171854
179	0xbd109709	-0.03530029
180	0x3dac6fdd	0.08419774
181	0xbe15109c	-0.14557117
182	0xbdd6c399	-0.10486526
183	0x3dba2cdf	0.0909059
184	0x3d4238a7	0.04741731
185	0xbda378a0	-0.07981992
186	0xbde3d324	-0.11124256
187	0xbda49eeb	-0.08038124
188	0xbb3c9cbb	-0.0028779942
189	0xbd935450	-0.07193816
190	0xbc79924f	-0.015232637
191	0x3c50b699	0.012738847
192	0x3c0dfcd6	0.008666238
193	0xbd557631	-0.05211467
194	0x3d50a6f4	0.05094047
195	0xbd86efcf	-0.065887086
196	0x3d568575	0.05237337
197	0xbe19511c	-0.14972347
198	0xbce3962d	-0.02778157
199	0xbd9e9f46	-0.07745223
200	0xbdc3221f	-0.095279925
201	0x3ca3ccd5	0.019995132
202	0x3dbe2d3a	0.0928597
203	0xbd870f16	-0.06594674
204	0xbd978625	-0.07398633
205	0xbd4bf856	-0.04979738
206	0x3d861e77	0.065487795
207	0xbd7cfc84	-0.061764255
208	0x3df08e79	0.117459245
209	0x3d67696d	0.056497026
210	0xbd84e198	-0.06488341
211	0x3c9a5d5f	0.018843351
212	0x3beb9854	0.00718979
213	0x3db99f1b	0.0906355
214	0xbd80c1b7	-0.06286948
215	0xbe10925f	-0.14118336
216	0xbdcd13aa	-0.10013516
217	0x3d86940a	0.06571205
218	0x3dd57e6f	0.10424506
219	0xbb9ec60f	-0.004845388
220	0x3d961027	0.073272996
221	0xbd5f79f2	-0.054559655
222	0xbdba85f7	-0.09107583
223	0xbc1c6396	-0.0095452275
224	0x3d74c5c7	0.059758928
225	0x3dc8188c	0.09770307
226	0xbc9f9ecb	-0.019484898
227	0xbd1c1b82	-0.03811217
228	0x3dbd1ccf	0.092340104
229	0x3dc8ede1	0.09810997
230	0xbe146725	-0.14492472
231	0xbdbca927	-0.09211951
232	0x3d799f23	0.06094278
233	0xbc991d96	-0.018690865
234	0xbd8febb1	-0.070273764
235	0xbe01829b	-0.12647478
236	0xbd562f79	-0.052291367
237	0x3bc1a6fd	0.005909799
238	0xbd3e1b18	-0.046412557
239	0xbd9400a4	-0.07226685
240	0x3e180168	0.14844286
241	0x3d2d7019	0.042343233
242	0x3e1ce06f	0.1531999
243	0xbc2e0471	-0.010621176
244	0x3e06d741	0.1316805
245	0x3b9dbb6d	0.0048136027
246	0xbe162d54	-0.14665729
247	0x3d635fff	0.05551147
248	0x3d00fbe3	0.031490218
249	0xbd7975cd	-0.06090336
250	0x3d954db9	0.07290215
251	0x3bc3869c	0.0059669744
252	0xbd934034	-0.0718998
253	0xbda6bc09	-0.081413336
254	0xbdd6cbf3	-0.10488119
255	0x3d971084	0.07376197

lstm.weight_hh_l1 f4 [256, 64]
0	0x3cd6a20c	0.026200317
1	0xbd6a0da4	-0.057141915
2	0xbc80be7d	-0.015715832
3	0xbd7aab6b	-0.061198633
4	0xbdb1a3c9	-0.08673818
5	0x3c92990b	0.017895242
6	0xbd33e307	-0.043917682
7	0x3d7ec4c8	0.062199384
8	0x3d340341	0.043948416
9	0x3b9aaeb6	0.004720534
10	0xbc87e0cf	-0.01658669
11	0xbd983fd4	-0.07434049
12	0x3c9f09ad	0.019413793
13	0x3df39e87	0.11895471
14	0xbbd46814	-0.0064821336
15	0xbe216301	-0.15760423
16	0xbd10a295	-0.0353113
17	0x3c5138c4	0.012769882
18	0x3e0de303	0.1385613
19	0x3c10b7ca	0.008832881
20	0x3defe14b	0.11712893
21	0xbd7058f2	-0.058678575
22	0xbd5c104a	-0.053726472
23	0x3dccf193	0.10007014
24	0xbe15f6f6	-0.1464499
25	0x3c215499	0.00984683
26	0x3daad0b2	0.08340587
27	0x3d8ec80c	0.0697175
28	0xbde02a77	-0.109455995
29	0x3e036fd5	0.1283563
30	0x3da7d328	0.08194572
31	0xbe0f770a	-0.14010254
32	0xbba17887	-0.004927698
33	0xbdac07ae	-0.08399902
34	0xbcffbdf7	-0.031218512
35	0xbdcb2924	-0.09919956
36	0xbe0585a1	-0.13039257
37	0xbd110b1e	-0.035410993
38	0x3d325355	0.043536503
39	0x3e004629	0.12526764
40	0x3db6070a	0.08888061
41	0xbb39b5e8	-0.0028337184
42	0xbdd32093	-0.103089474
43	0xbd5202e0	-0.051272273
44	0x3db0cacf	0.08632433
45	0xbcd59ac4	-0.026074775
46	0x3da1a3a2	0.078925386
47	0xbd31a05e	-0.04336583
48	0xbe0f1e33	-0.13976364
49	0x3d752d06	0.05985739
50	0xbd52cf4b	-0.05146722
51	0xbcca6330	-0.0247055
52	0xbd21f01e	-0.039535634
53	0x3da39d31	0.07988966
54	0x3d43c93a	0.047799326
55	0x3d55f885	0.05223896
56	0xbb679e48	-0.0035342146
57	0xbdbc0453	-0.09180512
58	0xbe138d66	-0.14409408
59	0x3d99cec3	0.0751014
60	0xbd76bc58	-0.060238212
61	0x3dc3c011	0.09558118
62	0x3c43360a	0.011914739
63	0x3cca7fb0	0.02471909
64	0x3d90014e	0.07031499
65	0xbd30bcde	-0.043148868
66	0xbdb2bf08	-0.087278426
67	0x3d95bbd0	0.07311213
68	0xbc2a9979	-0.010412567
69	0x3dc0e479	0.09418578
70	0xbe05bc68	-0.13060153
71	0xbe02031b	-0.12696497
72	0x3db148ea	0.086564854
73	0x3d9489d6	0.072528526
74	0x3d0d1ddc	0.034452304
75	0xbd697e22	-0.057005055
76	0xbda45f4f	-0.08025991
77	0x3dae637e	0.085150704
78	0x3d055cac	0.032559082
79	0xbe13f89d	-0.14450307
80	0xbd92669b	-0.07148477
81	0x3a859ec4	0.001019441
82	0xbc42c77b	-0.01188838
83	0xbd862b3e	-0.065512165
84	0x3bb0b627	0.005392808
85	0xbd22bcd1	-0.03973085
86	0x3c4b0f70	0.012393817
87	0xbce42bf1	-0.027852984
88	0xbdc5f809	-0.096664496
89	0x3c4f815e	0.012665121
90	0x3d6bf78b	0.057609122
91	0xbd2af768	-0.04173985
92	0x3da57c58	0.08080357
93	0x3e0e8960	0.13919592
94	0xbd06db52	-0.032924004
95	0xbd707bcb	-0.05871181
96	0xbe2530ae	-0.16131851
97	0x3d6dc8fe	0.05805301
98	0xbcd968bb	-0.026539197
99	0xbdf34fd4	-0.118804604
100	0x3d922987	0.07136827
101	0xbcd4cf5c	-0.025977783
102	0xbd850cc9	-0.06496579
103	0x3d8b29fc	0.06795117
104	0x3dfb1acf	0.12260973
105	0x3cc262af	0.023728697
106	0xbbff4f62	-0.0077914456
107	0xbd238105	-0.039917964
108	0xbce6a520	-0.02815491
109	0x3cc8ec5d	0.02452677
110	0xbe0b77fc	-0.13619989
111	0x3dac90ed	0.0842608
112	0x3cdddada	0.027081896
113	0x3d06a2ba	0.032870032
114	0x3c872e0b	0.016501447
115	0x3c319cc3	0.010840598
116	0x3d558942	0.052132852
117	0x3d30e26b	0.04318468
118	0xbd088745	-0.033332128
119	0xbe19ae83	-0.15007977
120	0x3da78294	0.08179203
121	0x3c9c03e7	0.01904483
122	0xbb4d3816	-0.0031313947
123	0x3d12eeb5	0.03587218
124	0x3d5cae5c	0.05387722
125	0x3b2820e0	0.002565436
126	0x3b69367e	0.0035585458
127	0xb80d7a6c	-3.3731034e-05
128	0x3d088f88	0.033340007
129	0xbdc08f55	-0.094023384
130	0x3d2a600b	0.0415955
131	0xbe17da5c	-0.14829391
132	0xbcfb82e5	-0.030702064
133	0x3db865e2	0.090038076
134	0x3d4b269d	0.04959737
135	0xbdcb79b4	-0.099353224
136	0xbd078d3e	-0.033093683
137	0x3dc96f29	0.09835655
138	0x3d8181e6	0.06323604
139	0x3d914e5e	0.070950255
140	0xbdbebf8f	-0.09313881
141	0x3d8977ed	0.06712327
142	0x3d258d34	0.040417865
143	0xbc95e7b7	-0.018298967
144	0x3da4b07b	0.080414735
145	0x3d01376f	0.031547006
146	0xbd719460	-0.058979392
147	0x3a8c4f44	0.0010704775
148	0xbda869fa	-0.082233384
149	0x3d5abebc	0.053404555
150	0xbdc29129	-0.09500343
151	0xbdc098fa	-0.09404178
152	0x3d7964c3	0.06088711
153	0xbdbfdd59	-0.093683906
154	0x3bc538d4	0.0060187373
155	0x3e143c05	0.1447602
156	0x3d306df1	0.0430736
157	0xbdb593b0	-0.0886606
158	0xbccdb994	-0.025112905
159	0x3d464ada	0.048411228
160	0xbe2b6524	-0.16737801
161	0x3db92286	0.09039788
162	0xbcfbd5ad	-0.030741537
163	0xbe098f39	-0.13433541
164	0xbe073af3	-0.13206081
165	0xbd7ce579	-0.06174228
166	0xbd0e0522	-0.034672864
167	0xbc1cb80b	-0.009565364
168	0x3d316dea	0.043317713
169	0xbd2ad911	-0.041710917
170	0xbda66695	-0.08125035
171	0x3d73af65	0.05949344
172	0x3d01aa3c	0.03165649
173	0xbe137734	-0.14400941
174	0xbc888110	-0.016663104
175	0x3dccfb0a	0.100088194
176	0xbd31431b	-0.043276887
177	0xbd51c33c	-0.05121158
178	0x3c82af90	0.015952855
179	0x3cbd554b	0.02311196
180	0xbc2b669b	-0.010461475
181	0xbd55c8ed	-0.05219357
182	0x3c041baa	0.008063236
183	0xbdc95091	-0.0982982
184	0x3e0b79f5	0.13620742
185	0xbdf04929	-0.11732704
186	0xbc4a0456	-0.012330135
187	0x3dd5e82d	0.10444675
188	0x3d36801e	0.044555776
189	0xbdafb672	-0.085797206
190	0xbe0307be	-0.12795922
191	0xbdd1452c	-0.102182716
192	0xbe0e6f55	-0.13909657
193	0x3d653c4c	0.055965707
194	0xbdbbb20a	-0.09164818
195	0xbe0f72fa	-0.14008704
196	0x3ae952de	0.0017801186
197	0xbb2c2c0d	-0.0026271373
198	0x3d939aaa	0.07207234
199	0x3c38c688	0.011277802
200	0xbd971ab9	-0.07378144
201	0xbd9eaf9b	-0.07748338
202	0x383df688	4.529071e-05
203	0x3c0fb727	0.008771694
204	0x3dbb6b92	0.09151377
205	0xba029d72	-0.00049825676
206	0xbd315204	-0.043291107
207	0xbd7d4d12	-0.061841078
208	0x3dfed4ac	0.12442908
209	0xbd862b22	-0.06551196
210	0x3d7f9a22	0.062402852
211	0x3ddb84e4	0.10718706
212	0x3c91a148	0.0177771
213	0xbca0553f	-0.019571899
214	0x3d007000	0.03135681
215	0x3dfea131	0.124330886
216	0xbdaf8450	-0.085701585
217	0x3e1b8dcd	0.15190811
218	0xbd9f309c	-0.077729434
219	0x3c205c57	0.009787641
220	0x3dba7239	0.091038175
221	0xbd7c5875	-0.061607797
222	0x3be1c0e8	0.0068894513
223	0x3cf0414f	0.029328017
224	0xbe308ea9	-0.1724192
225	0x3e1daba2	0.15397504
226	0x3c9d6f65	0.019218156
227	0xbdb332c6	-0.08749919
228	0x3dbc997e	0.09208964
229	0x3d904c01	0.070457466
230	0xba66b5ca	-0.00088008924
231	0x3e23dc01	0.16001894
232	0xbd42d7ba	-0.047569014
233	0x3db8cf0d	0.09023867
234	0xbdd1c449	-0.102425165
235	0xbb10138d	-0.002198431
236	0x3d8e0413	0.06934371
237	0xbd7ebd89	-0.062192474
238	0x3d4ba4d5	0.049717743
239	0x3e10671c	0.14101833
240	0xbdeba8fe	-0.11506842
241	0xbd53eed3	-0.051741432
242	0xbdf58251	-0.119877465
243	0xbafc895b	-0.0019267009
244	0x3d5d1e86	0.053984188
245	0xbd08edcc	-0.033429906
246	0x3d6ed7ae	0.058311157
247	0xbddb4dab	-0.10708173
248	0x3df86cda	0.12130137
249	0x3d60d2ab	0.05488841
250	0xbe1cc769	-0.15310444
251	0xbd8cd88a	-0.06877239
252	0x3cd1abe7	0.025594665
253	0xbd91c1c6	-0.071170375
254	0x3d2a90f8	0.04164216
255	0xbdf45610	-0.119304776

lstm.bias_ih_l1 f4 [256]
0	0x3d5a6272	0.05331654
1	0xbd82586a	-0.0636452
2	0xbd3e778f	-0.04650074
3	0x3d833860	0.06407237
4	0xbc4abd33	-0.01237421
5	0xbc25aadf	-0.01011154
6	0x3c79071f	0.015199452
7	0xbc92edcf	-0.017935662
8	0x3dbb5ad4	0.091481835
9	0xbd2621ce	-0.040559582
10	0x3e03b56d	0.12862177
11	0xbcd9f3de	-0.026605543
12	0xbd9c864a	-0.07642801
13	0xbd0d8db5	-0.03455897
14	0x3db93bef	0.090446346
15	0x3de07124	0.1095908
16	0xbd6d0a64	-0.057871237
17	0x3df9b573	0.12192812
18	0xbd82ea48	-0.06392342
19	0xb9f97e98	-0.000475873
20	0x3da420e9	0.080140896
21	0xbd0c735a	-0.034289695
22	0x3e144832	0.14480665
23	0x3d1d69e5	0.038431067
24	0x3b517155	0.003195842
25	0x3a9ec558	0.0012113256
26	0x3daea050	0.08526671
27	0x3db08a5f	0.08620142
28	0x3bf81650	0.007571019
29	0xbd5ecc42	-0.054394014
30	0x3e070ec9	0.13189234
31	0x3def5baf	0.11687409
32	0x3d590e5d	0.052992214
33	0x3d66c913	0.056344103
34	0x3dad058c	0.084483236
35	0x3d1404ac	0.036137268
36	0x3e07effe	0.13275144
37	0x3d7a4812	0.061103888
38	0xba1d527b	-0.0006001365
39	0x3dd13c60	0.10216594
40	0x3dd76853	0.10517945
41	0x3d14d2e1	0.036333922
42	0x3ca0fb9b	0.019651225
43	0x3dfffb31	0.12499083
44	0xbc5fbe64	-0.0136562325
45	0x3c987351	0.018609675
46	0x3d0658cd	0.03279953
47	0x3dad380e	0.08457957
48	0xbd04ac26	-0.032390736
49	0x3daf3b17	0.08556192
50	0xbb9a51e4	-0.004709469
51	0x3e177c52	0.14793518
52	0x3e00bceb	0.12572066
53	0x3d1c89cc	0.03821735
54	0x3d37ed98	0.04490432
55	0xbda1f547	-0.07908111
56	0x3dd821ca	0.1055332
57	0x3ca43f0c	0.020049594
58	0xbba4ac2c	-0.0050254073
59	0x3dafa89a	0.0857708
60	0xbcc981f4	-0.0245981
61	0x3c44347a	0.011975402
62	0x3e1a162a	0.15047517
63	0x3db236fc	0.08701894
64	0xbd8f44bf	-0.06995534
65	0x3cf5ef56	0.03002135
66	0x3a64549c	0.00087101175
67	0xbd9a5b46	-0.0753694
68	0x3d39eb11	0.045390192
69	0x3df0b031	0.11752356
70	0xbd1713b4	-0.036884025
71	0x3da01fc5	0.078185596
72	0x3d332863	0.043739688
73	0xbd0ff57e	-0.03514623
74	0xbc659543	-0.014012638
75	0x3dcbed39	0.09957356
76	0xbdb47a32	-0.088123694
77	0xbd5588a8	-0.05213228
78	0x3e186ce0	0.14885283
79	0x3def5fbc	0.11688182
80	0x3e133602	0.14376071
81	0xbc9d6665	-0.019213865
82	0x3d85141b	0.064979754
83	0x3d907da6	0.070552155
84	0xbd973e39	-0.07384915
85	0x3d64d0df	0.055863257
86	0x3e08dfe7	0.13366662
87	0x3cb470d5	0.022026459
88	0x3dee78e0	0.11644149
89	0x3cb5aaef	0.022176234
90	0x3d87b29a	0.066258624
91	0x3c9a5962	0.01884145
92	0xbd6a0770	-0.057136
93	0x3d2e16e5	0.042502303
94	0x3e05167d	0.1299686
95	0x3dbc95db	0.0920827
96	0x3de3a35c	0.11115143
97	0x3d1c59d7	0.038171615
98	0xbdaf9257	-0.08572834
99	0x3ce38eb8	0.027778015
100	0xbda62346	-0.081121966
101	0x3e0ddfb8	0.13854873
102	0xbd84120f	-0.06448757
103	0x3d70772e	0.05870741
104	0x3dd221de	0.10260366
105	0x3e0422b6	0.12903866
106	0x3d578890	0.05262047
107	0x3d63a8b2	0.055580802
108	0xbc2ce449	-0.010552474
109	0x3e0f6a94	0.140055
110	0x3dad676f	0.08466994
111	0x3e0ccb79	0.13749494
112	0x3d46a0b5	0.048493106
113	0xbd45566f	-0.048178133
114	0x3dc07eb1	0.093991645
115	0xbcec22a1	-0.028825106
116	0xbd9dad6c	-0.07699093
117	0x3dce3a84	0.10069755
118	0xbd4975b6	-0.049184524
119	0x3de8c8df	0.11366438
120	0x3e03d947	0.12875853
121	0x3dcee380	0.10101986
122	0x3d53eb5a	0.05173812
123	0x3b7041a8	0.0036660228
124	0x3d400274	0.04687734
125	0x3dbebb2d	0.09313045
126	0xbd803097	-0.06259268
127	0x3d9cbad4	0.07652822
128	0x3bd5df8b	0.0065268925
129	0xbc8c2c09	-0.017110841
130	0xbd93158a	-0.071818426
131	0xbe13309a	-0.14374009
132	0x3ce7aab3	0.028279638
133	0xbdedf052	-0.11618103
134	0xbba427c9	-0.0050096256
135	0xbdcebf49	-0.100950785
136	0x3d813a90	0.06309998
137	0x3e09f126	0.13470897
138	0xbccaf246	-0.024773728
139	0xbd3f6e38	-0.046735972
140	0xbd10a2ee	-0.03531163
141	0x3e18b5ef	0.14913152
142	0x3c29294d	0.010324788
143	0xbbe8c5a3	-0.0071036383
144	0x3c743cdb	0.014907087
145	0x3dce66e0	0.100782156
146	0x3cf37f4b	0.029723784
147	0x3cb5b26b	0.022179803
148	0x3da7cf44	0.0819383
149	0xbc8a71df	-0.016900001
150	0xbcedf8b7	-0.02904926
151	0x3cf36653	0.029711878
152	0xbce323d8	-0.027727053
153	0x3d262ebb	0.04057191
154	0xbe0406d3	-0.12893228
155	0xbcc41048	-0.023933545
156	0xbd97f553	-0.07419839
157	0x3dd22927	0.102617554
158	0x3d2a4ed4	0.041579083
159	0xbe03e828	-0.1288153
160	0x3d0bf727	0.03417125
161	0xbc5f077c	-0.013612624
162	0xbdb49f00	-0.08819389
163	0xbdd58a59	-0.10426778
164	0xbe0ac33b	-0.13551037
165	0x3d326dfc	0.04356192
166	0x3dfb44e9	0.12269003
167	0x3dd519a7	0.104052834
168	0xbd9c78f1	-0.07640255
169	0x3df9dcec	0.12200341
170	0x3da20f71	0.079131015
171	0xbe102a91	-0.14078738
172	0x3dcc10cc	0.09964141
173	0x3d6b49ba	0.057443358
174	0xbe0b0ab8	-0.13578308
175	0x3d11dea2	0.03561271
176	0xbd1b7704	-0.0379553
177	0x3df6ac02	0.12044527
178	0x3ccc4eb3	0.02493987
179	0x3c192612	0.009347456
180	0xbd40f110	-0.047104895
181	0x3e0b852d	0.13625021
182	0x3d0d7f51	0.034545247
183	0xbdac6b29	-0.08418877
184	0xbd7828bf	-0.060585734
185	0xbd51727a	-0.051134564
186	0xbe03457a	-0.12819472
187	0x3ddd4b09	0.108053274
188	0x3d2f5697	0.042807188
189	0xbd690d7c	-0.056897625
190	0xbce4d4b2	-0.027933452
191	0x3c7c238e	0.015389336
192	0xbde74ff4	-0.11294547
193	0xbc78d1d8	-0.015186749
194	0x3da7ec18	0.08199328
195	0x3d8ad41b	0.06778737
196	0x3ccf2aed	0.025289023
197	0xbdab99c9	-0.083789416
198	0x3d6f7e8d	0.058470298
199	0x3aac1df3	0.0013131484
200	0x3d315383	0.043292534
201	0xbd931f5c	-0.07183716
202	0x3d28fe18	0.041257948
203	0xbdb69d6f	-0.08916747
204	0xbdf6cce2	-0.12050797
205	0xbd58d7d1	-0.052940194
206	0xbd5b3ac6	-0.053522848
207	0xbd55803e	-0.052124254
208	0xbd7ec1bd	-0.062196482
209	0xbd9cc2c2	-0.076543346
210	0x3dc859d8	0.09782761
211	0x3d59568f	0.053061064
212	0x3d9aaed3	0.07552876
213	0xbd47904d	-0.0487216
214	0xbd89bd60	-0.067255735
215	0xbe026e05	-0.12737282
216	0x3e000f7d	0.12505908
217	0x3d92034c	0.07129535
218	0xbdee7428	-0.11643249
219	0xbd8093fd	-0.062782265
220	0xbe09a61e	-0.13442275
221	0xbc5d3895	-0.01350226
222	0x3d0b95b2	0.034078307
223	0x3d6e934b	0.05824594
224	0x3ddd171d	0.10795424
225	0x3ac7e1d4	0.0015249797
226	0x3caf0da8	0.021368816
227	0x3d1e188d	0.038597632
228	0xbdc263c2	-0.094916835
229	0xbddc6578	-0.10761541
230	0x3ce843cc	0.02835264
231	0xbd8041a7	-0.06262522
232	0xbda895f7	-0.082317285
233	0x3cda46c5	0.026645074
234	0xbd274397	-0.040835943
235	0x3de5074a	0.11183031
236	0xbdbaaee6	-0.091153905
237	0xbc0992a6	-0.00839678
238	0x3d39c9d2	0.045358486
239	0x3da2eca1	0.0795529
240	0xbdbc9c29	-0.09209473
241	0x3e2836b1	0.16427113
242	0x3d4e9eca	0.0504444
243	0xbe0d1eaa	-0.13781229
244	0xbd8aca9c	-0.06776926
245	0xbcaac3d3	-0.02084533
246	0x3d72cafd	0.059275616
247	0x3d86fa5d	0.06590722
248	0x3c93f743	0.01806224
249	0xbd829660	-0.06376338
250	0x3d016c3d	0.031597365
251	0xbd8dbd75	-0.06920902
252	0xbdd85bc3	-0.10564377
253	0xbd8da491	-0.06916154
254	0xbc4a962d	-0.012364906
255	0xbbdc41a9	-0.0067216945
